dqn_model_multi_scenario.pth (torch, 67617 bytes, 6 tensors)

net.0.weight f4 [128, 56]
0	0xbb7d09c2	-0.0038610552
1	0x3e77882c	0.24173039
2	0xbecdd4ad	-0.4020132
3	0x3e734135	0.23755343
4	0x3ed7f247	0.4217703
5	0x3dfc2be0	0.12313056
6	0x3d0a50d3	0.033768486
7	0xbe8b20cd	-0.27173463
8	0xba88303b	-0.001039035
9	0x3ef9031d	0.48635188
10	0x3f3f5736	0.7474245
11	0xbf3c9eb7	-0.7367968
12	0x3c1e31f6	0.009655466
13	0x3d2471c5	0.04014756
14	0x3c16e199	0.00920906
15	0xbd5f4180	-0.054505825
16	0xbd9ec412	-0.07752241
17	0x3dee9140	0.11648798
18	0x3d8e7b2c	0.06957087
19	0x3ca5a8fb	0.020222178
20	0xbb7a8eb2	-0.0038232026
21	0x3c8f0ee0	0.017463148
22	0x3dc5d4bc	0.096597165
23	0x3cf152bd	0.029458398
24	0xbd49dc03	-0.049282085
25	0xbcdd2caa	-0.026998837
26	0xbd2cb53a	-0.04216502
27	0xbd92a86d	-0.07161031
28	0x3c833e3f	0.016020892
29	0xbbe430a0	-0.0069638044
30	0xbbf7efdf	-0.0075664367
31	0xbb97e5fa	-0.0046355696
32	0x3deb4f7f	0.11489772
33	0x3df1f1f5	0.11813728
34	0x3d0d14c0	0.034443617
35	0x3de7e80f	0.113235585
36	0x3de0c746	0.109755084
37	0xbe072b1c	-0.13200039
38	0x3ddf96ae	0.10917412
39	0x3dd08a8f	0.10182678
40	0x3c29118e	0.010319127
41	0x3b44a6aa	0.0030006566
42	0xbe0fbc47	-0.14036666
43	0xbdf2ef64	-0.118620664
44	0x3f7a8b40	0.9786873
45	0x3f1567db	0.58361596
46	0x3f00806b	0.5019595
47	0xbe03cade	-0.12870356
48	0xbdc8dff6	-0.09808342
49	0xbdfb4d24	-0.12270573
50	0xbe9ca343	-0.3059331
51	0xbd62af40	-0.055342913
52	0xbf12bd15	-0.57319766
53	0xbf1acecf	-0.60471815
54	0x3d448f8b	0.047988456
55	0xbdcf5ab3	-0.101247214
56	0x3e53546f	0.20637678
57	0xbf401a71	-0.75040346
58	0x3f3a9f76	0.7289957
59	0xbf0b45e7	-0.5440354
60	0xbef44962	-0.47712237
61	0xbdf9abb3	-0.12190952
62	0x3da01272	0.07816018
63	0x3f290899	0.66028744
64	0xbf90d71f	-1.131565
65	0xbf673c8b	-0.90326756
66	0x3ef7e5fb	0.4841765
67	0x3ed70c66	0.42001647
68	0xbd7c8cb3	-0.06165762
69	0x3c1e0fc1	0.009647311
70	0x3d822be9	0.063560314
71	0xbdc5c73d	-0.09657142
72	0xbd9f3224	-0.077732354
73	0xbb6017a0	-0.003419377
74	0xbdc30e25	-0.09524182
75	0xbd8b1cfc	-0.06792638
76	0xbd0e1932	-0.034691997
77	0xbdd6f9e8	-0.104968846
78	0x3d49ca35	0.049265105
79	0xbdbd690c	-0.09248552
80	0xbd6f9f7c	-0.058501706
81	0xbd884bca	-0.066550806
82	0xbd802dc6	-0.062587306
83	0xbd99b19d	-0.0750458
84	0xbd96107d	-0.07327364
85	0xbdbe872d	-0.093031265
86	0x3ddb6343	0.10712292
87	0xbe06f3f7	-0.13179003
88	0x3c5ca901	0.013468028
89	0xbd000e3b	-0.03126357
90	0x3cd780bc	0.026306503
91	0xbdf2b218	-0.11850375
92	0x3d26bb60	0.04070604
93	0x3ddef4a5	0.10886506
94	0xbd024955	-0.031808216
95	0x3dda32f8	0.10654253
96	0x3dcccd4c	0.10000095
97	0x3ce22dea	0.027609784
98	0x3efe0806	0.49615496
99	0xbedb9672	-0.42888218
100	0x3f93faf0	1.1560955
101	0xbfa00e13	-1.2504295
102	0x3da1ce00	0.079006195
103	0xbdffaf89	-0.124846525
104	0xbd2293a4	-0.039691582
105	0x3f04859f	0.5176639
106	0xbf9a6b59	-1.206401
107	0xbf517204	-0.818146
108	0x3f91ee37	1.1400822
109	0xbf89e5d0	-1.0773258
110	0xbdd0d43d	-0.10196731
111	0xbe05e7f4	-0.13076764
112	0x3e2ebb4f	0.1706364
113	0x3ec44248	0.3833182
114	0xbfa29319	-1.2701141
115	0x3c81440a	0.015779514
116	0xbea2cc07	-0.31796286
117	0x3dd600d8	0.1044938
118	0x3e035c3b	0.12828152
119	0xbe2af1ca	-0.16693798
120	0xbea75626	-0.32682914
121	0xbf32d77e	-0.69860065
122	0xc00a1e99	-2.1581175
123	0xbf87b74b	-1.0602812
124	0x3d994de0	0.074855566
125	0x3d9324ab	0.07184728
126	0x3c9442a3	0.018098181
127	0x3d0abb1c	0.033869848
128	0x3c88ab45	0.01668323
129	0xbdef8e75	-0.116970934
130	0xbd9d9233	-0.07693901
131	0x3cfae506	0.030626785
132	0xbde7cded	-0.11318574
133	0xbc74aa7a	-0.014933223
134	0x3c6e7b05	0.014555697
135	0x3db711ff	0.08938979
136	0xbda88734	-0.08228913
137	0xbdeab7ed	-0.11460862
138	0xbddfdc4b	-0.109306894
139	0x3d9c284f	0.07624876
140	0x3dc0236f	0.093817584
141	0xbc8f87f2	-0.017520878
142	0xbdb8dc51	-0.09026397
143	0x3c9a3597	0.018824382
144	0xbc926859	-0.017872022
145	0x3dae5956	0.08513133
146	0xbd6e2368	-0.058139235
147	0xbd635c56	-0.05550798
148	0x3ca4f5ae	0.02013668
149	0xbdfc0688	-0.12305933
150	0x3db8a1d8	0.09015244
151	0x3de1fb9e	0.1103432
152	0x3dc9ab79	0.09847159
153	0x3b96fb96	0.004607628
154	0xbf97e73c	-1.1867442
155	0x3f176a8e	0.59146965
156	0xbe68c6be	-0.22732064
157	0xbff47250	-1.9097385
158	0xbf7f7c49	-0.9979902
159	0xbdbae35c	-0.091253966
160	0x3e03857e	0.12843892
161	0xbd018415	-0.031620104
162	0x3d4e2fd2	0.050338574
163	0xbf31c719	-0.69444424
164	0xbe1d074b	-0.15334813
165	0x3f34b0c7	0.7058224
166	0x3d4be114	0.049775198
167	0xbddd9015	-0.10818497
168	0xbf116ff7	-0.5681147
169	0x3c9ca12a	0.019119818
170	0xb945c2d1	-0.00018859959
171	0x3eaf7f3e	0.34276766
172	0x3eddee06	0.4334566
173	0x3d875c17	0.066093616
174	0xbdcb835d	-0.09937165
175	0x3d274399	0.04083595
176	0xbe1afdd1	-0.15135886
177	0x3e965610	0.29362535
178	0xbf081ced	-0.5316914
179	0xbf966345	-1.1749045
180	0x3b1442d6	0.0022622845
181	0xbaf9d538	-0.0019060737
182	0x3d5cd616	0.053915106
183	0xbdf14964	-0.11781576
184	0x3d80af4e	0.06283437
185	0xbb0d92c3	-0.002160237
186	0x3d9f5bb1	0.077811606
187	0x3d88f511	0.06687368
188	0xbdde117b	-0.10843178
189	0xbcb43e7c	-0.022002451
190	0x3cd73c95	0.026274005
191	0x3d3984c6	0.04529264
192	0xbd41828f	-0.04724365
193	0xbdf1fc84	-0.11815742
194	0x3dea74f0	0.11448085
195	0x3dbca512	0.09211172
196	0x3de838ff	0.11338996
197	0x3d9c7b5c	0.076407164
198	0x3e02010f	0.12695716
199	0x3d091586	0.033467792
200	0x3dfff33a	0.12497564
201	0xbc155f9b	-0.009117032
202	0x3be67674	0.0070331637
203	0x3ce0582b	0.027385792
204	0xbd2e8c4f	-0.042614277
205	0xbd6612a6	-0.05617013
206	0xbcb566b6	-0.022143703
207	0xbdc4763f	-0.09592866
208	0x3cd620e2	0.026138727
209	0xbe0729bb	-0.13199513
210	0xbe9e5614	-0.30925047
211	0xbe694ce9	-0.22783245
212	0xbf892636	-1.0714786
213	0xbf61ed4f	-0.8825273
214	0x3de7ccec	0.113183826
215	0x3e03a075	0.12854178
216	0x3dae2cf0	0.08504665
217	0x3da801d8	0.08203477
218	0x3e1388a1	0.14407589
219	0x3e2ad775	0.16683753
220	0x3edf5e3f	0.43626592
221	0x3ea9c563	0.33158407
222	0xbd344739	-0.044013236
223	0x3db49b7e	0.0881872
224	0xbeb03f0b	-0.34423098
225	0xbfa6e2cf	-1.3037966
226	0xbd908fe7	-0.07058697
227	0x3f2263da	0.6343361
228	0xbf1c1da7	-0.60982746
229	0x3d7e6a61	0.06211317
230	0xbe0793f4	-0.13240033
231	0x3f31bafd	0.69425946
232	0xbf205682	-0.62632
233	0xbe68d4e7	-0.22737466
234	0xbf2757b2	-0.6536819
235	0x3f0638ec	0.52430606
236	0x3d8efec3	0.06982186
237	0x3ddf0058	0.108887374
238	0xbdc32e76	-0.09530346
239	0xbd2911df	-0.04127681
240	0xbdaebb1f	-0.08531784
241	0xbd76be7a	-0.060240246
242	0x3cf8804b	0.030334612
243	0xbe03b710	-0.12862802
244	0x3da1e760	0.079054594
245	0xbaa7898c	-0.0012782081
246	0xbc892f76	-0.016746264
247	0x3dd3349a	0.10312767
248	0xbc9b8cd2	-0.018988047
249	0x3da39136	0.07986681
250	0x3dbf3b80	0.093375206
251	0x3da309f4	0.07960883
252	0xbce405cc	-0.027834795
253	0xbd9354fe	-0.07193945
254	0xbd6029e6	-0.054727457
255	0xbdff2104	-0.12457469

net.0.bias f4 [128]
0	0x3e9c1e3c	0.30491817
1	0x3e4aab04	0.197918
2	0x3ef0de74	0.47044718
3	0x3f94ba69	1.1619388
4	0x3f128e94	0.57248807
5	0x3fc18474	1.5118546
6	0x3fc38707	1.5275582
7	0x3ee034b0	0.43790197
8	0x3e77be68	0.24193728
9	0x3fadb3fa	1.357055
10	0x3f2fb5d6	0.68636835
11	0xbd61b1a5	-0.055101056
12	0x3f85d751	1.0456334
13	0x3fc82262	1.5635493
14	0x3eb27b62	0.3485976
15	0x3fc35aa0	1.5262032
16	0x3fcb3f45	1.5878683
17	0x3ef44e29	0.4771588
18	0x3f44b4b4	0.7683823
19	0x3f9cc875	1.2248675
20	0x3f50d6a5	0.8157752
21	0x3f6da893	0.9283535
22	0x3e6a3077	0.2287005
23	0x3f2fc76c	0.6866367
24	0x3fc04d40	1.5023575
25	0x3f24d5f4	0.64388967
26	0xbf136f19	-0.57591397
27	0x3fb9720e	1.4487932
28	0x3f557265	0.8337768
29	0x3f316915	0.6930097
30	0x3f74fd73	0.9569923
31	0x3ead492b	0.33844885
32	0x3f16fa3b	0.5897557
33	0x3f44650b	0.7671668
34	0x3fc57683	1.5426792
35	0x3f34630a	0.7046362
36	0x3e075c39	0.13218774
37	0x3f47503a	0.7785679
38	0x3fadb780	1.3571625
39	0x3f286e24	0.6579306
40	0x3f14488c	0.579232
41	0x3f3c917e	0.73659503
42	0x3edff4f7	0.4374158
43	0x3f046e35	0.5173066
44	0x3e91d829	0.2848523
45	0x3e60112c	0.2188155
46	0x3fb8b152	1.4429114
47	0xbb671e7b	-0.003526597
48	0x3f3eba94	0.74503446
49	0x3f215fed	0.63036996
50	0x3f9b16b2	1.2116301
51	0x3f7cf8ac	0.98816943
52	0xbee9d0de	-0.45667166
53	0x3f37835f	0.7168483
54	0x3ee786ba	0.45219976
55	0x3faf509c	1.3696475
56	0x3e694c7a	0.2278308
57	0xbdff670c	-0.124708265
58	0x3fd4580d	1.6589371
59	0x3f828951	1.0198156
60	0x3fb50193	1.4141105
61	0x3f6dbe8c	0.92868876
62	0x3fbd3486	1.4781654
63	0x3efa6e55	0.48912302
64	0x3e0f5f08	0.14001095
65	0x3f4c9054	0.7990773
66	0xbe4aa261	-0.19788505
67	0x3fc90489	1.5704509
68	0x3f85c8ad	1.0451866
69	0x3f87d0cd	1.0610596
70	0xbdf201a4	-0.11816719
71	0x3fb86b0b	1.4407667
72	0x3f47cb54	0.7804463
73	0x3dc39629	0.09550125
74	0x3e32891c	0.17435116
75	0x3f9a71b7	1.2065953
76	0x3eb50b36	0.35360116
77	0x3f7db72b	0.9910762
78	0x3f1da265	0.6157592
79	0x3ebf7601	0.37394717
80	0xbe87a22a	-0.2649091
81	0x3fb0178b	1.3757185
82	0x3e35c5a4	0.17751175
83	0x3f01a70d	0.50645524
84	0x3f9e828f	1.2383593
85	0x3ddd0aae	0.107930526
86	0x3fad01e4	1.3516202
87	0x3e71c09c	0.23608631
88	0x3ee04f4c	0.438105
89	0x3f0183f1	0.5059195
90	0x3f23abd4	0.63934064
91	0xbe0f86e1	-0.14016296
92	0x3f6eec88	0.9332967
93	0x3f93a883	1.1535801
94	0x3e88410b	0.26612124
95	0x3ed22a13	0.41047725
96	0x3f1e6a41	0.6188088
97	0x3f64acca	0.89326155
98	0x3eb64a1b	0.35603413
99	0x3fb41456	1.4068706
100	0x3f0f82c0	0.56058884
101	0x3e879c88	0.2648661
102	0x3f6246c6	0.8838924
103	0x3de028f7	0.109453134
104	0x3f905b3b	1.1277841
105	0x3f21a987	0.63149303
106	0x3fce864d	1.6134735
107	0x3f16a084	0.5883868
108	0x3f758da0	0.9591923
109	0xbe78f0a3	-0.24310546
110	0x3f77d989	0.9681631
111	0x3f9a2b01	1.2044374
112	0xbdeb9f73	-0.11505022
113	0x3f799372	0.9749061
114	0x3f9cb63f	1.2243117
115	0x3f453664	0.7703612
116	0x3ea98b36	0.33114022
117	0x3fc7f22e	1.5620782
118	0x3f13072e	0.5743283
119	0x3c91a847	0.017780436
120	0x3f2fe191	0.6870356
121	0xbf4818ba	-0.7816273
122	0x3fa91600	1.3209839
123	0x3fc84755	1.5646769
124	0x3e8cfc00	0.2753601
125	0x3fb4995c	1.4109302
126	0x3f595d73	0.8490822
127	0x3e97c561	0.29642776

net.2.weight f4 [64, 128]
0	0xbf6f1b1e	-0.9340075
1	0xc09b81b8	-4.859585
2	0xbf0bac65	-0.5455993
3	0x3fa88ca4	1.316792
4	0xc0208202	-2.507935
5	0x3e7a9686	0.24471483
6	0x3f210333	0.62895507
7	0xbfb07ff6	-1.378905
8	0xbe4cde02	-0.20006564
9	0xbe66813b	-0.22510235
10	0x3f847bed	1.0350319
11	0x3f356bbc	0.70867515
12	0x3e9b3b1f	0.30318543
13	0xbec87d7a	-0.3915823
14	0xc02cbf8f	-2.6991918
15	0x3ed3e0f9	0.41382578
16	0xbff87d1f	-1.9413184
17	0xbeffb1fa	-0.49940473
18	0x3f6a9e47	0.9164776
19	0xbfbb2982	-1.4622042
20	0xbeb3da47	-0.3512747
21	0xc04bdca6	-3.1853423
22	0x3fa18eaa	1.2621663
23	0xbf59f5a6	-0.85140455
24	0x3e024747	0.12722503
25	0xbf1d95e3	-0.61556834
26	0xbf793419	-0.9734512
27	0x3ebc92f6	0.36830872
28	0xbfd58fe4	-1.6684537
29	0xc02e248b	-2.7209804
30	0xbfb70578	-1.4298544
31	0xbf805887	-1.0027016
32	0xc0442353	-3.064656
33	0xbe2438ed	-0.1603734
34	0x3f57295f	0.840475
35	0xbfc372c4	-1.5269399
36	0xc03447f8	-2.8168926
37	0xbdfcac5a	-0.12337561
38	0x3eeb4bc7	0.4595625
39	0xc01c0c3f	-2.4382474
40	0xbff85e7e	-1.9403837
41	0xc0107b1f	-2.2575147
42	0xbf6e05f2	-0.9297782
43	0xc077b2f0	-3.8702965
44	0xbff95159	-1.947795
45	0xbf861f5e	-1.0478323
46	0xbb37e946	-0.0028062626
47	0xbfe26b02	-1.7688906
48	0xc02d4742	-2.7074742
49	0xc00e6637	-2.2249887
50	0x3fb350f8	1.4009085
51	0xbf8bf9c6	-1.09356
52	0x3f8d2df8	1.1029654
53	0xc0275f60	-2.6151962
54	0xc0028900	-2.0396118
55	0xc082474c	-4.071203
56	0xbff42fec	-1.9077125
57	0xbff66b31	-1.9251462
58	0xbf06bfc5	-0.5263637
59	0x3f1020d3	0.56300086
60	0xbe955970	-0.29169798
61	0xc066b37a	-3.6047044
62	0x3fa4e938	1.2883673
63	0xbf55f783	-0.835808
64	0xc00881e8	-2.1329288
65	0xc05384af	-3.3049734
66	0xbf860d77	-1.0472859
67	0x3ed6c729	0.41948822
68	0x3e6d4d49	0.23174013
69	0x3d702f5f	0.058638927
70	0xbffa776b	-1.9567693
71	0x3e293d7f	0.16527365
72	0x3fa0f9e9	1.2576267
73	0xbf84a4bb	-1.0362772
74	0xbf9f4443	-1.2442707
75	0x3eba6c1f	0.36410615
76	0xc040b124	-3.0108118
77	0x3f91b6df	1.1383933
78	0xbfca068a	-1.5783246
79	0xbfd12f43	-1.6342548
80	0xbfbafee1	-1.4609033
81	0x3eb67b2b	0.35640845
82	0xc016f3ac	-2.3586226
83	0xbfd221a6	-1.6416519
84	0x3e647704	0.22311026
85	0xbe4b284d	-0.19839592
86	0x3fcbaf1f	1.5912818
87	0xbf001781	-0.50035864
88	0xc0483f6b	-3.1288707
89	0xbffb3bc9	-1.962762
90	0xbedc6a50	-0.4304986
91	0x3f9ac132	1.2090209
92	0xc01dd2aa	-2.465983
93	0xbe55b6ec	-0.2087056
94	0xbe79f29c	-0.24408954
95	0x3cb5a7be	0.022174712
96	0xbf915481	-1.1353914
97	0xbfbc9fcc	-1.4736266
98	0xc003a11f	-2.056709
99	0x3f7731ff	0.96560663
100	0x3ddf0d8d	0.108912565
101	0xc07aa791	-3.9164774
102	0xbf18eb63	-0.5973417
103	0xc037c661	-2.871483
104	0x3e830035	0.25586095
105	0xc009503b	-2.1455219
106	0x3ebfe513	0.37479457
107	0xbe7735c1	-0.24141599
108	0x3d8a0a94	0.06740299
109	0xbf52d653	-0.8235828
110	0xc0373661	-2.862694
111	0x3d3b6590	0.045751154
112	0xbf9d312b	-1.228063
113	0xc003f57a	-2.0618577
114	0xbfecc28b	-1.849687
115	0xbfcfb985	-1.6228491
116	0xbfe7b0c6	-1.8100822
117	0x3f175c8e	0.591256
118	0xc03ee23e	-2.9825587
119	0x3f10e857	0.5660452
120	0xbf91a5d9	-1.1378738
121	0x3e6f8a1c	0.23392528
122	0x3ea1b0a6	0.31580085
123	0xbf93677c	-1.1515956
124	0xbff2bde3	-1.8964199
125	0x3eed9a89	0.46406963
126	0xc019e967	-2.4048707
127	0xbf4683bd	-0.77544767
128	0x3f49999e	0.78750026
129	0x3fcde136	1.6084354
130	0x3f817f18	1.0116911
131	0x3e1edfde	0.15515086
132	0x3f4426a4	0.7662146
133	0x3d3cd541	0.046101812
134	0xbe8295bd	-0.25504866
135	0x3f63d966	0.890036
136	0x3e1f19db	0.15537207
137	0x3e08973b	0.1333894
138	0x3f82829b	1.0196108
139	0xbe3255cf	-0.17415546
140	0xbe3e538a	-0.18586555
141	0xbf468e4b	-0.7756087
142	0x3f61bba2	0.8817693
143	0x3f264a87	0.6495747
144	0x3ee016f1	0.43767503
145	0x3f0dfa04	0.5545962
146	0xbe1f29d8	-0.15543306
147	0x3ee22d28	0.44175076
148	0x3eca019f	0.39454362
149	0x3f203757	0.6258444
150	0xbee7ad0a	-0.45249206
151	0x3ef38055	0.47558847
152	0xbd7315cc	-0.05934696
153	0x3daa64d2	0.08320011
154	0xbf5fcd3a	-0.87422526
155	0xbe11dee9	-0.1424519
156	0x3f4487e3	0.76769847
157	0x3f3059ce	0.6888703
158	0x3e5dd274	0.21662313
159	0x3f58a11f	0.8462085
160	0x3f9cd809	1.2253429
161	0x3f96bba8	1.1776018
162	0xbe0e5129	-0.13898148
163	0x3f9df2d2	1.2339728
164	0x3f9b5107	1.2134103
165	0x3f6d4f52	0.9269916
166	0xbdb8b1bb	-0.090182744
167	0x3fa48b44	1.2855
168	0x3f2836a7	0.6570839
169	0x3ed91573	0.42399177
170	0x3c3bfe24	0.011474166
171	0xbddb6281	-0.107121475
172	0x3f470f1b	0.77757424
173	0x3f823204	1.0171514
174	0xbc12b05f	-0.008953183
175	0x400817b1	2.126446
176	0x3f1aafb7	0.6042437
177	0x3fa21e8b	1.2665571
178	0x3ec323a0	0.38113117
179	0x3f41645d	0.7554377
180	0xbf53a434	-0.8267243
181	0x3f945245	1.1587607
182	0x3ed0fe73	0.4081913
183	0x3f6c46d9	0.92295605
184	0x3e91727d	0.2840766
185	0x3f837d4a	1.027261
186	0x3e92290d	0.28546944
187	0xbfa7d40d	-1.3111588
188	0x3e70260f	0.23452018
189	0x3f9489ad	1.1604515
190	0x3e914548	0.2837317
191	0xbf0b30e4	-0.54371476
192	0x3f59d6ba	0.8509327
193	0x3f1629bd	0.5865744
194	0xbdcdadcc	-0.10042915
195	0xbe19542c	-0.14973515
196	0x3e2d189f	0.16903923
197	0x3f8be7a8	1.0930071
198	0x3f17f072	0.59351265
199	0x3e996a77	0.2996404
200	0x3e88b460	0.26700115
201	0x3dce2b71	0.100668795
202	0x3de5026f	0.11182105
203	0xbece4d7f	-0.402935
204	0x3eb8d206	0.36097735
205	0x3e2c4770	0.16824126
206	0x3e40a7eb	0.18814056
207	0x3f32d584	0.6985705
208	0x3fa3658e	1.2765367
209	0xbe3001f5	-0.17188247
210	0x3f72aeb7	0.94797844
211	0x3f8267ca	1.0187924
212	0xbe574e89	-0.21026053
213	0xbdcdcddb	-0.100490294
214	0xbdedc45b	-0.116097175
215	0x3e935048	0.28772187
216	0x3f88f948	1.0701075
217	0x3f21d8ee	0.63221633
218	0x3ead959b	0.33903202
219	0xbf0e0e80	-0.55490875
220	0x3f7e5bc0	0.9935875
221	0x3e761308	0.24030697
222	0xbe1994d8	-0.14998186
223	0xbfdd706e	-1.7299936
224	0x3fa52dee	1.2904642
225	0x3f79cd21	0.97578627
226	0x3ed85b12	0.4225698
227	0x3f2c0440	0.67193985
228	0x3f2fcbfc	0.6867063
229	0x3f160ba0	0.5861149
230	0x3ec4834b	0.3838142
231	0x3f93da09	1.1550914
232	0xbec426c2	-0.3831082
233	0x3e958054	0.2919947
234	0xbd22eed1	-0.039778534
235	0x3f522819	0.82092434
236	0x3ee2092d	0.44147626
237	0x3e934623	0.28764448
238	0x3fd22b73	1.641951
239	0xbcebb2de	-0.028771814
240	0x3ed11c80	0.40842056
241	0x3fb10428	1.3829393
242	0xbf48986e	-0.7835759
243	0x3f6765c8	0.9038968
244	0x3f882802	1.063721
245	0xbc638af0	-0.013888106
246	0x3f502495	0.8130582
247	0xbf6a67d6	-0.9156469
248	0x3f3272db	0.69706506
249	0xbf48dc04	-0.7846072
250	0xbddf88fb	-0.10914799
251	0xbf3bb060	-0.73316
252	0x3f96552d	1.1744744
253	0xbe856d37	-0.26059887
254	0x3f5df5e2	0.8670331
255	0x3eba8ab5	0.3643395

net.2.bias f4 [64]
0	0x3f87c633	1.0607361
1	0x3e21a3b5	0.15785106
2	0xbe2ba7ec	-0.16763276
3	0x3fa47936	1.2849491
4	0x3f8866a8	1.0656328
5	0x3f8eb92f	1.1150264
6	0x3f96b450	1.1773777
7	0x3e0f6039	0.1400155
8	0x3f8738b3	1.0564178
9	0x3fcf3832	1.6189024
10	0xbc9d6379	-0.019212471
11	0x3f903bf1	1.1268293
12	0xbd96accf	-0.073571794
13	0x3fa0140e	1.250612
14	0x3ff65f08	1.9247751
15	0x3ddf0ba3	0.108908914
16	0xbd8a497f	-0.067522995
17	0xbcadd3ea	-0.021219213
18	0xbdb27283	-0.087132476
19	0x3f8d9e7b	1.1063989
20	0xbe4b71ab	-0.1986758
21	0xbc586e85	-0.013209944
22	0x3fd5f3a6	1.6714981
23	0xbd87b76d	-0.066267826
24	0xbcc2556b	-0.023722371
25	0xbe6ed5ca	-0.23323742
26	0x3de74eaa	0.11294301
27	0x3fb2267d	1.3917996
28	0xbe8450c9	-0.25842884
29	0xbead0f89	-0.33800915
30	0x3f82f9ca	1.023248
31	0x3fc9ae33	1.5756286
32	0xbe4ab684	-0.19796187
33	0x3f90a3ca	1.1299984
34	0x3f8e26c6	1.1105583
35	0x3f863a4c	1.0486541
36	0x3fbf7fbe	1.4960859
37	0xbd1b248a	-0.037876643
38	0x3e04de6f	0.12975477
39	0xbce37425	-0.027765343
40	0x3f84d00b	1.037599
41	0x3fbac4b9	1.4591285
42	0xbe44b2fc	-0.19208902
43	0xbe445989	-0.1917478
44	0xbecd1275	-0.40053144
45	0xbea77fc4	-0.32714665
46	0x3f7bee9c	0.98410964
47	0x3f849c29	1.0360156
48	0xbdd2e812	-0.1029817
49	0x3f7ef970	0.9959936
50	0xbd1d39d2	-0.03838522
51	0x3fd11dc5	1.633721
52	0xbdd73874	-0.105088145
53	0x3f9723b3	1.180777
54	0x3da3950f	0.07987415
55	0x3e365a3c	0.17807859
56	0x3f920e1d	1.1410557
57	0xbc4b1c15	-0.012396832
58	0xbdea9abf	-0.11455297
59	0x3ff7f8ce	1.9372804
60	0xbeb0a583	-0.34501275
61	0xbd999a67	-0.07500153
62	0x3f75a4ea	0.95954764
63	0xbdd9a5e2	-0.10627343

net.4.weight f4 [8, 64]
0	0xbf9bcad9	-1.2171279
1	0xbf9ef053	-1.2417091
2	0xbe06f395	-0.13178857
3	0xbf583864	-0.84461045
4	0xbf223170	-0.63356686
5	0xbf8b0511	-1.0860921
6	0xbf342edd	-0.7038401
7	0x3f2acf1d	0.6672228
8	0xbf81cb8e	-1.0140245
9	0xbe64b4bb	-0.22334568
10	0x3f5edadf	0.8705272
11	0xbf1f62b2	-0.6225997
12	0x3ee50b4e	0.44735187
13	0xbf171588	-0.5901723
14	0xbf0d3052	-0.55151856
15	0x3ebd6f69	0.36999062
16	0x3d0ce96f	0.034402307
17	0x3e4493cc	0.19197005
18	0x3dc5399a	0.09630127
19	0xbf895ecd	-1.0732056
20	0x3ebf386a	0.37347728
21	0x3d9f0724	0.07765034
22	0xbf500b6b	-0.8126742
23	0x3d6bb563	0.05754603
24	0xbe0c8ff8	-0.13726795
25	0x3e8a3a0e	0.26997417
26	0x3efd6caf	0.49496982
27	0xbf004df6	-0.5011896
28	0x3e83ca8d	0.2574047
29	0x3dae21a1	0.08502508
30	0xbf77bd40	-0.9677315
31	0xbf5a9059	-0.8537651
32	0x3e27f8ad	0.16403456
33	0xbf5c8d15	-0.86152774
34	0xbf812e60	-1.0092278
35	0xbf2c27ef	-0.67248434
36	0xbf2c50c4	-0.6731074
37	0x3e33fb34	0.17576295
38	0x3eaefb79	0.34176233
39	0x3ee7a02b	0.45239386
40	0xbf7cd780	-0.98766327
41	0xbf236744	-0.63829446
42	0x3e582f5e	0.21111819
43	0x3ec9129c	0.3927201
44	0x3f17451a	0.59089816
45	0x4015486a	2.3325448
46	0xbedc4fc8	-0.43029618
47	0xbf87ca92	-1.0608695
48	0xbde6fa5a	-0.112782195
49	0xbf2e4b7d	-0.68083936
50	0x3e6d6aa2	0.23185208
51	0xbf3a021b	-0.7265946
52	0xbd0cfa3f	-0.03441834
53	0xbf6ca13e	-0.92433536
54	0x3f07beca	0.53025496
55	0x3f56aaba	0.8385426
56	0xbf94cbee	-1.1624734
57	0x3fea7ef1	1.831999
58	0x3f8469f1	1.0344831
59	0xbf4acd4d	-0.79219514
60	0x3fae5a50	1.3621311
61	0x39a18699	0.00030808596
62	0xbf506955	-0.81410724
63	0x3f0c9655	0.5491689
64	0xbf6c3130	-0.92262554
65	0xbfa1522f	-1.2603205
66	0xbdebd9de	-0.11516164
67	0xbf21908e	-0.631112
68	0xbf428970	-0.75990963
69	0xbf3f8bc6	-0.7482265
70	0xbf4de6e6	-0.8043045
71	0x3f5bfed4	0.8593571
72	0xbf31aea6	-0.6940712
73	0xbf31389f	-0.6922702
74	0x3eaaca04	0.3335725
75	0xbf43493d	-0.7628363
76	0x3f00f659	0.50375897
77	0xbf236098	-0.63819265
78	0xbf53fdf3	-0.8280937
79	0x3e9f071e	0.31060117
80	0xbd42afd1	-0.047530953
81	0x3e14b002	0.14520267
82	0xbce9267f	-0.02846074
83	0xbf5f10bd	-0.87134916
84	0x3eb9c8f0	0.36286116
85	0x3ce0d7b0	0.027446598
86	0xbf4ce1c8	-0.80032015
87	0x3c99f900	0.01879549
88	0xbe93929f	-0.288228
89	0x3ed62550	0.41825342
90	0x3ef9e1f1	0.48805192
91	0xbf3259a9	-0.6966806
92	0x3ec2b9f9	0.3803251
93	0x3f8631b7	1.0483922
94	0xbfa0ca0d	-1.2561661
95	0xbf38b677	-0.7215342
96	0x3ee8c7f2	0.45465046
97	0xbf84399a	-1.0330079
98	0xbf637877	-0.8885569
99	0xbf7b06a4	-0.9805701
100	0xbf1b67c8	-0.6070523
101	0x3ec08512	0.37601525
102	0x3fcaebe7	1.5853242
103	0x3eab24ed	0.3342661
104	0xbf615d60	-0.88033104
105	0xbf06dc0d	-0.5267952
106	0x3ea959af	0.33076236
107	0x3eb1c11f	0.34717652
108	0x3f088e8b	0.53342503
109	0x401cb90f	2.448795
110	0xbf020613	-0.5079052
111	0xbf7a4b77	-0.977714
112	0xbdbc148e	-0.09183608
113	0xbf5d9ce9	-0.8656755
114	0x3f3274da	0.6970955
115	0xbf180ea7	-0.5939736
116	0xbd9d0c30	-0.0766834
117	0xbf96f24f	-1.1792697
118	0x3f06e8e2	0.526991
119	0x3f2c650e	0.673417
120	0xbf6179d1	-0.880765
121	0x3fe75eab	1.8075765
122	0x3ed0c75d	0.40777102
123	0xbf23bab1	-0.63956743
124	0x3fb814d8	1.4381361
125	0x3d6ad93b	0.057336073
126	0xbf64bfe6	-0.89355314
127	0x3e9f2cc6	0.31088847
128	0xbf859de2	-1.0438807
129	0xbf9f98d6	-1.2468517
130	0x3d45e61f	0.048315164
131	0xbf25a1d5	-0.6470006
132	0xbf682964	-0.9068816
133	0xbf8c2a36	-1.0950382
134	0xbf89e921	-1.077427
135	0x3f408d05	0.7521518
136	0xbf2c6a90	-0.673501
137	0xbf0a0414	-0.5391247
138	0x3f38300b	0.7194831
139	0xbf765e8a	-0.96238005
140	0x3ea60af6	0.32430238
141	0xbf3abb03	-0.7294161
142	0xbf51d97b	-0.81972474
143	0x3f0dc366	0.5537628
144	0x3def6399	0.116889186
145	0xbe2ec6a3	-0.17067961
146	0x3d991d26	0.07476263
147	0xbf88a7a3	-1.0676159
148	0x3ebf90c9	0.3741515
149	0x3db298e2	0.08720566
150	0xbeda0b6b	-0.42586836
151	0xbd995864	-0.07487562
152	0xbc00bf4b	-0.007858108
153	0x3e7719d6	0.2413095
154	0x3f1e544f	0.61847395
155	0xbf623946	-0.8836864
156	0x3e38a80a	0.18032852
157	0x3f0eb9c5	0.5575221
158	0xbf7cf516	-0.9881147
159	0xbf931119	-1.1489593
160	0x3ebccea6	0.3687641
161	0xbf9840f5	-1.1894823
162	0xbf8b4dcb	-1.0883116
163	0xbf8848f8	-1.0647268
164	0xbf13e732	-0.5777465
165	0x3ee9bf6e	0.45653862
166	0x3fbc65c1	1.4718553
167	0x3f119121	0.56862074
168	0xbf60e747	-0.878529
169	0xbeb2c743	-0.3491765
170	0x3d0ab925	0.033867974
171	0x3f032a5e	0.5123652
172	0x3f04cfe3	0.5187971
173	0x400bcf96	2.184545
174	0xbf21e360	-0.6323757
175	0xbf2556fd	-0.6458586
176	0xbdeae65e	-0.1146972
177	0xbf005080	-0.50122833
178	0x3f9d5774	1.2292314
179	0xbf435a0b	-0.7630927
180	0xbcbc09d0	-0.022953898
181	0xbf260ee3	-0.64866465
182	0x3ed1f8c3	0.41010103
183	0x3f287136	0.65797746
184	0xbf7d367a	-0.9891125
185	0x3f1de554	0.6167805
186	0xbf3087c4	-0.6895716
187	0xbf21205e	-0.62940013
188	0x3f95ef1c	1.1713595
189	0x3ddc81bc	0.10766932
190	0xbf148616	-0.580171
191	0x3ebe0cec	0.37119234
192	0xbf7f5981	-0.9974595
193	0xbfa4bc3f	-1.2869948
194	0xbcef415d	-0.029205972
195	0xbf2630cb	-0.649182
196	0xbf776118	-0.9663253
197	0xbf572b54	-0.8405049
198	0xbf7e7f3a	-0.9941288
199	0x3f5a60b8	0.8530383
200	0xbf490b29	-0.78532654
201	0xbf0b7f67	-0.54491276
202	0x3f20b52d	0.6277645
203	0xbf10288b	-0.56311864
204	0x3ef9acc6	0.48764628
205	0xbf35bf43	-0.7099497
206	0xbf626eeb	-0.884505
207	0x3eedbf62	0.46435076
208	0x3d11552e	0.035481624
209	0x3e2590df	0.16168545
210	0x3d3d26c2	0.04617954
211	0xbf44f353	-0.76933783
212	0x3e2d598e	0.16928694
213	0x3ddf95fc	0.10917279
214	0xbed06534	-0.40702212
215	0x3da75cc4	0.081719905
216	0x3dbd87a2	0.092543855
217	0x3eefbf25	0.4682552
218	0x3f1362c8	0.57572603
219	0xbf139d20	-0.5766163
220	0x3eb83a78	0.35982108
221	0x3ed97316	0.42470616
222	0xbf2e2888	-0.68030596
223	0xbf321ab8	-0.6957202
224	0x3eca4223	0.39503583
225	0xbf8e23e6	-1.1104705
226	0xbf9c63ac	-1.2217917
227	0xbf59cd4a	-0.8507887
228	0xbf16e75f	-0.58946794
229	0x3ee57e31	0.4482284
230	0x3f9a32ff	1.2046813
231	0x3ec99e28	0.39378476
232	0xbf938e0e	-1.1527727
233	0xbf49a563	-0.78767985
234	0x3e732488	0.23744404
235	0x3ea50b0e	0.32234997
236	0x3f003cd4	0.50092816
237	0x40165f81	2.349579
238	0xbf2dc4de	-0.6787852
239	0xbf581b07	-0.8441624
240	0x3b853520	0.004065171
241	0xbf2d7633	-0.6775848
242	0x3eab9396	0.33511037
243	0xbf388570	-0.7207861
244	0x3cf0b860	0.029384792
245	0xbf596a0c	-0.8492744
246	0x3ef646c1	0.48100856
247	0x3f1851e4	0.59499955
248	0xbf6eab3d	-0.9323004
249	0x3fe24a7e	1.7678983
250	0x3ec77b2e	0.38961166
251	0xbf537ad9	-0.82609326
252	0x3f94d3f8	1.1627188
253	0x3d4b034a	0.049563684
254	0xbf5f7619	-0.8728958
255	0x3e96500e	0.29357952

net.4.bias f4 [8]
0	0x3eec648b	0.46170458
1	0xbe8aa303	-0.27077493
2	0x3cd4a1ee	0.02595612
3	0x3cd658da	0.026165415
4	0x3f045ef9	0.51707417
5	0xbe5bf3d6	-0.21479735
6	0x3e5b9bff	0.21446227
7	0x3d059991	0.032617155
