dqn_model.pth (torch, 67373 bytes, 6 tensors)

net.0.weight f4 [128, 56]
000000 05 e1 c8 be 51 75 94 be 19 34 cf bd 41 3d c1 3d
       -0.39234176 -0.28995755 -0.10117359 0.094355114
000010 86 bd bb 3e f6 bc 20 bd 33 1e 97 3d 18 da a7 3e
       0.36668032 -0.039242707 0.07378807 0.3278358
000020 41 3d da bd 7b 59 31 bf c6 f0 ec be d2 a9 60 3e
       -0.106562145 -0.6927716 -0.46277446 0.21939781
000030 1d 07 11 3d 68 ec 0b bd 43 47 1f 3d 4d b6 ae 3d
       0.035407174 -0.034161 0.03888632 0.08530865
000040 de 8c 66 3d 2b 51 cb bd 83 0a 04 be 10 f1 3f bd
       0.056286685 -0.09927591 -0.12894635 -0.046860754
000050 92 53 13 3c e7 98 96 3c 5d 29 99 3a 3c 18 a9 bd
       0.008992093 0.018383456 0.0011685301 -0.082565755
000060 b6 68 f6 3d 7c 04 ed bc dd b8 ce 3d 5b 1e 60 bd
       0.12031691 -0.028932802 0.100938536 -0.05471645
000070 fe 5e 2e bd 75 e9 df 3d 14 27 b2 3d 37 2b aa bd
       -0.04257106 0.109332 0.0869886 -0.08309024
000080 9c 82 41 bd 08 c7 b7 bc d1 68 ed bd 50 3a cc 3d
       -0.0472437 -0.022433773 -0.11592258 0.0997206
000090 6c 37 03 be e4 07 e0 bc 5e 7b 0a 3d c3 a8 59 bc
       -0.1281411 -0.027347513 0.03380906 -0.013284865
0000a0 c2 fb f7 bd 4b e4 1e 3c f4 54 38 be 1d 12 fa 3d
       -0.12108566 0.009697984 -0.18001157 0.12210486
0000b0 85 9e cb be 9a 5c 03 be 84 a6 b3 be 94 b8 53 3b
       -0.39769378 -0.12828293 -0.3508798 0.0032306062
0000c0 37 c9 0d 3d d1 8c 97 be d2 98 bf bd e7 06 d6 3c
       0.03461572 -0.29599622 -0.0935532 0.026126338
0000d0 51 69 17 be 74 8f 65 be b0 0d 80 bd 88 84 48 3c
       -0.14786269 -0.22418004 -0.06252611 0.012238629
0000e0 4d cc 61 be e9 11 d1 bd 04 ac cc be d7 9f 86 be
       -0.22050591 -0.10208494 -0.39974988 -0.26293823
0000f0 6c f1 01 be 6b ba 5f bc c4 e1 28 bd a1 3c 91 3e
       -0.12689751 -0.013655285 -0.041230932 0.2836657
000100 8c 9d 88 be 38 e9 11 bf 91 7e 45 be ab 43 f4 3c
       -0.266827 -0.5699649 -0.19286563 0.029817423
000110 06 7a b6 3d 84 02 ca 3b bc 93 e0 bc 06 12 86 3d
       0.08909993 0.0061648507 -0.027414195 0.065464064
000120 42 71 2c bd 28 da f4 bd 6b bf 67 bd 95 59 04 3e
       -0.0421002 -0.119556725 -0.056579035 0.12924798
000130 83 49 dd bd 8e 32 78 bc 94 16 f1 bd 81 2c 2b 3d
       -0.10805037 -0.015148772 -0.117718846 0.04179049
000140 11 42 a2 3d d1 e1 ec 3d ab d3 a0 3d f5 ba ed 3d
       0.079227574 0.115665086 0.078528725 0.11607925
000150 ec 88 92 bb 97 f8 08 bd 50 f7 eb bd 33 c3 95 3d
       -0.0044718888 -0.0334402 -0.115217805 0.07312622
000160 0c 2e ee bc 2f 9b b1 bc 7f 15 a3 bd 92 86 f7 b9
       -0.029074691 -0.021680443 -0.079630844 -0.00047211774
000170 d1 76 6b 3d 45 01 59 bd 42 3c c4 bd 30 70 e5 3d
       0.05748636 -0.052979726 -0.09581806 0.11203039
000180 ce 14 8a 3c 2e f5 53 3d b5 b8 ae bd 2a 0a 47 bd
       0.016855624 0.051747493 -0.08531324 -0.048593678
000190 47 ad ae be 3d 99 fe bd 36 d7 d9 be 3b 1f ae 3c
       -0.34116575 -0.12431572 -0.42547005 0.021255126
0001a0 e2 09 dc bd a0 fc 02 bd 90 af a1 bd d9 2a 05 bf
       -0.107440725 -0.031979203 -0.07894814 -0.52018505
0001b0 c9 b4 3f bf 8b 43 46 be e8 f4 02 3e f4 48 e1 3d
       -0.7488523 -0.19361703 0.12788737 0.11000243
0001c0 dc 14 99 3e 68 07 98 be fd d9 e9 3d 86 6d 28 be
       0.29898727 -0.2969315 0.11418531 -0.1644803
0001d0 c9 77 91 3e 8b 12 bb bd b4 7e c8 3d df 00 f9 3c
       0.284117 -0.09134396 0.09789792 0.030395923
0001e0 a7 91 13 3f e7 b5 f3 3d 69 c2 0e 3e 15 7a b0 3e
       0.5764412 0.118999295 0.13941349 0.3446814
0001f0 b8 38 1b bd fc 98 cb 3d bd 76 03 bd af 1b af 3d
       -0.037895888 0.09941289 -0.03209566 0.08550202
000200 90 9d 51 bd ab 62 ef 3d a1 b0 b0 bd 08 7e 8a 3d
       -0.051175654 0.11688741 -0.08627439 0.0676232
000210 78 ca b6 bd 29 ed 3b 3a 40 be f0 3d 1e a9 d5 bc
       -0.089253366 0.00071688235 0.11755037 -0.026081618
000220 f5 35 b0 bb 21 e3 60 3d 00 4e 3e 3d 05 7a de 3d
       -0.005377526 0.054904107 0.046461105 0.10863117
000230 cb 1e 15 3b ad 51 16 bc 22 2c 76 bd f9 dc 7b 3c
       0.002275395 -0.009174746 -0.060100682 0.015372508
000240 ae 52 c5 bd fd ab f7 bb 58 ad 8c 3d 1b 57 62 bc
       -0.096349105 -0.0075583444 0.06869 -0.013814713
000250 ac a7 05 3e d7 73 b5 bd f8 a3 f1 3d 9c 74 a1 3d
       0.13052243 -0.08859985 0.11798853 0.078835696
000260 cc 0e ef 3d 75 72 87 3d 0c de 16 be 44 71 bf 3e
       0.11672744 0.06613628 -0.14733142 0.37391102
000270 07 54 d8 3e 06 bf 0b 3f 88 5d 42 3e 30 7c fd 3d
       0.42251608 0.54588354 0.18980992 0.123772025
000280 b0 6f 2b bd 27 60 45 3e ae 75 59 be 85 e2 11 3f
       -0.04185456 0.1927496 -0.21236297 0.56986266
000290 8e 5c c8 3e 74 1b 68 3e 85 72 f8 3d e5 3b dc 3c
       0.39133114 0.22666723 0.12131218 0.026884029
0002a0 f0 30 be 3e 90 92 bf bf c4 35 4d bf 8a 5f 25 bf
       0.3714671 -1.4966602 -0.80160165 -0.64598906
0002b0 85 84 b3 bf 16 7e 77 3c 16 94 e6 3d b8 b5 e6 be
       -1.4024817 0.015105745 0.11258714 -0.45060515
0002c0 ed 05 32 bf 32 a3 c6 3e 53 f9 ae 3e 1e 4c 7f 3d
       -0.6954029 0.38796383 0.34174594 0.06232845
0002d0 7e 91 8a bd 73 b7 f5 3d 8f 9f 02 bd a3 f0 6b 3d
       -0.06766032 0.11997881 -0.03189045 0.057602536
0002e0 8f a9 6f ba 35 19 0d bd 72 cc a0 3c 64 a5 ba 3d
       -0.00091423927 -0.034447867 0.019628737 0.09113577
0002f0 b7 50 d6 bd 45 29 fa 3b f0 2c cb bd 08 87 40 bd
       -0.10464614 0.0076343142 -0.099206805 -0.047003776
000300 5c 15 e2 3d 43 1a 02 bd 0a 07 4f bd 32 3f 72 bd
       0.1103923 -0.031763326 -0.050543822 -0.0591423
000310 c1 1a b6 3d dd 31 e5 bc 49 83 50 bd fc 2e 82 3d
       0.08891822 -0.027977878 -0.050906453 0.06356618
000320 7f 1e 56 3d ab a5 f5 3d a8 fa 7b bd 00 2c 9f 3d
       0.052275177 0.11994489 -0.06151834 0.07772064
000330 2f 62 a3 3d 05 33 32 3c a6 a6 4b bd 84 b2 bf bd
       0.079777114 0.010876422 -0.049719475 -0.09360221
000340 1b c2 06 be 4d b5 3a 3d a1 17 4d 3d fd f5 3a bf
       -0.13159983 0.04558306 0.050071362 -0.730316
000350 72 3f 0f 3f 9a 2f 01 3f 3b d1 02 3f 54 ea e4 3d
       0.55956185 0.5046326 0.5110051 0.11177507
000360 ff 1a c5 3d cb 69 05 bf d7 e8 6b be 56 25 85 bf
       0.0962429 -0.5211455 -0.2303804 -1.0402019
000370 6e 91 81 bf 36 75 0d bf ca ac 06 3e 4a fd 89 bd
       -1.0122507 -0.55256975 0.13151851 -0.06737764
000380 8d 01 9a be f4 a1 1c 3e a5 f8 c9 3e e0 0a a8 3e
       -0.30079308 0.15296155 0.39447513 0.32820797
000390 a8 6b 3c 3e 48 c8 e8 3d 7b a8 3d 3d 7c ad c6 3c
       0.18400443 0.113663256 0.046303254 0.024252646
0003a0 0a af 2a be 60 ed 5b bb dd 80 93 3d 8f e1 79 3e
       -0.16668335 -0.0033558235 0.07202313 0.2440245
0003b0 f6 de ba bb 77 d9 92 bd 92 82 9a 3d 76 dd 41 bd
       -0.0057028485 -0.071703844 0.075444356 -0.047330342
0003c0 84 82 cf bc db 83 a8 3d d9 e8 46 bd ca c0 c5 bc
       -0.02533079 0.082282744 -0.048561905 -0.02413978
0003d0 73 8c 3c bc d7 9e 05 be 77 46 ca bd 44 bc 5d 3d
       -0.011508095 -0.13048874 -0.09876721 0.054134622
0003e0 6d 56 4d bd 3e 86 ee 3c ee aa 24 bd d8 9c dc bd
       -0.05013125 0.029116746 -0.040202074 -0.10772103
0003f0 f5 01 90 bd 56 e0 ff bd 97 0d 16 bd 88 08 62 3c
       -0.07031623 -0.124939606 -0.036634054 0.013795979

net.0.bias f4 [128]
000000 06 24 13 40 a5 ae 0c 40 dd fc 21 40 ac 5d de 3f
       2.2990737 2.1981595 2.5310585 1.7372336
000010 17 90 13 40 c2 ef 07 40 77 3a 01 40 a7 3f 14 40
       2.3056695 2.1240087 2.0191934 2.316385
000020 61 6d 15 40 d1 b3 e6 3f 70 d1 0d 40 ec 27 1e 40
       2.334801 1.8023626 2.215908 2.4711866
000030 5a 2c 0c 40 0d b5 1a 40 c0 e3 1e 40 a3 8e 20 40
       2.190207 2.4173005 2.4826508 2.5087059
000040 88 0f 1e 40 2e 77 1b 40 85 99 1e 40 84 60 21 40
       2.469698 2.4291492 2.47812 2.5215158
000050 57 bf 16 40 f0 80 10 40 bf d5 13 40 22 ad 08 40
       2.3554285 2.2578697 2.309921 2.1355672
000060 c0 73 6d 3f 46 bc dc 3f 10 54 14 40 54 f4 1a 40
       0.92754745 1.7244956 2.3176308 2.4211626
000070 2a 50 10 bd c3 2d eb 3f 22 b5 1d 40 8e a8 29 40
       -0.0352327 1.837334 2.4641805 2.6509128
000080 52 4d 11 40 bb b9 ff 3f 90 9d c2 3f 17 c6 e4 3f
       2.2703443 1.9978555 1.5204334 1.7872952
000090 e2 69 0e 40 2f 05 04 40 63 57 e7 be dc 6a 0f 40
       2.2252126 2.0628164 -0.45183858 2.2408972
0000a0 0d 8c 04 bf 9f dc 16 40 08 98 15 40 8b 44 e0 3f
       -0.517762 2.3572156 2.3374043 1.7520918
0000b0 53 b5 10 40 4c eb 13 40 ab 3f 25 40 59 9e 2f 40
       2.2610672 2.3112364 2.582011 2.7440398
0000c0 62 cf f2 3f 7e 60 d0 3f c3 46 03 40 a0 d8 18 40
       1.8969538 1.6279447 2.051194 2.3882217
0000d0 69 b7 11 40 9b 8a 24 40 59 7f 0a 40 4f cf d6 3f
       2.2768195 2.5709598 2.1640227 1.6782016
0000e0 7d 74 12 40 1b 8f 0e 40 61 f8 1b 40 3c c2 02 40
       2.2883599 2.2274845 2.4370348 2.0431051
0000f0 8d a3 02 40 ef 0e 1a 40 83 a4 0b 40 0c 7f 2e 40
       2.0412323 2.4071615 2.181916 2.7265043
000100 96 bd 15 40 e6 53 08 40 96 ec 14 40 be 08 0f 40
       2.3396964 2.1301208 2.32694 2.2349086
000110 38 d4 13 40 fc c3 e4 bd 45 75 06 40 3c 55 19 40
       2.3098278 -0.111701936 2.1009076 2.3958273
000120 5e d4 eb 3f ec 67 1f 40 3d b9 ea bd ed ee 0d 40
       1.8424184 2.490718 -0.11461113 2.2177079
000130 c0 8d 35 40 ad 5f 19 40 81 03 d0 3f bc 15 4e be
       2.8367767 2.3964646 1.6251069 -0.20125479
000140 3e ae df 3f 97 7e 19 40 09 b5 0f 40 95 72 28 be
       1.747505 2.3983514 2.2454245 -0.1644996
000150 09 f0 36 40 cf f0 4d 3e 1f 0d 25 40 f0 89 26 40
       2.8584006 0.20111392 2.5789258 2.602169
000160 94 a0 17 40 42 c2 d8 3f 4c 24 18 40 31 3d 15 40
       2.369176 1.6934283 2.3772154 2.3318598
000170 1e e6 17 40 7f d3 0a 40 55 98 1c 40 ae 0c bf 3f
       2.3734202 2.1691587 2.4467976 1.4925745
000180 6f 06 0a 40 18 57 06 40 98 92 08 40 53 73 33 40
       2.1566427 2.0990658 2.1339474 2.8039138
000190 f3 10 2e 3f d9 b2 e1 3f 46 12 10 40 1c 09 24 40
       0.6799461 1.7632705 2.2511153 2.563056
0001a0 25 e2 22 40 e6 89 02 40 26 0e 0c 40 31 9b 17 40
       2.5450528 2.0396667 2.1883636 2.3688471
0001b0 23 2d 18 40 c0 20 11 40 75 ed f9 3f 8d bf 0b 40
       2.377755 2.267624 1.9525591 2.1835663
0001c0 4f d8 18 40 7d 91 17 40 10 f2 01 40 7b e7 2c 40
       2.3882024 2.368255 2.0303993 2.7016284
0001d0 93 5f 1d 40 3e 48 23 40 fe 0c 33 40 48 60 d9 3f
       2.4589584 2.5512843 2.797668 1.6982508
0001e0 b4 1e 22 40 ce 24 e3 3d c6 c4 00 40 80 69 16 40
       2.533124 0.11091004 2.01201 2.3501892
0001f0 8d bd 05 40 77 f6 22 40 a4 db d9 3f 59 ee e8 3f
       2.0896943 2.546293 1.7020154 1.8197738

net.2.weight f4 [64, 128]
000000 fd 84 19 3d b8 60 b4 bc 20 b1 d3 be 12 21 0c 3d
       0.037480343 -0.022018775 -0.41346073 0.034211226
000010 74 b1 27 3e f6 b8 20 3e ee 52 ed be 18 51 90 3d
       0.16376287 0.15695557 -0.46352333 0.070467174
000020 4c 05 1f bf d1 9c 96 3d 1f 6b ee 3b e3 4f f9 bc
       -0.6211746 0.07354129 0.0072759534 -0.0304336
000030 1c 18 f6 3d f7 fa 0d bf 38 5e c8 3d 15 e1 ec 3c
       0.12016317 -0.55461067 0.09783596 0.028915921
000040 40 6c f9 3d 78 5e af 3d e7 e5 20 bf 0b 03 3e bf
       0.1217885 0.0856294 -0.62850803 -0.74223393
000050 47 06 e8 be 0e d5 96 3e 06 95 9e bd 39 82 ee 3d
       -0.4531729 0.29459423 -0.07743268 0.11645932
000060 5e 38 6c be 99 92 4b 3e 65 3d d5 3c 30 d9 0b 3e
       -0.23068377 0.19880141 0.026030252 0.13657069
000070 27 bc 84 bd 77 db 1b 3d 7a ed 18 bf 26 52 0a bf
       -0.064812 0.038051095 -0.5973736 -0.540316
000080 9d 95 d8 3d 80 f0 8f 3e bf 4a 5f bc 02 35 09 3e
       0.105754115 0.28113174 -0.013628661 0.13399127
000090 f2 42 3b 3e 23 8a 50 3e 1f f3 60 3d e5 0d 48 bd
       0.18287256 0.20365195 0.05491936 -0.048841376
0000a0 64 e0 11 3e 71 c3 03 3e f6 5e 32 3e 23 3a 16 bf
       0.14245754 0.12867524 0.17419037 -0.5868246
0000b0 73 d5 57 bf 47 b4 53 3e ed 60 0c bd 60 29 60 bf
       -0.8431007 0.20674239 -0.034272123 -0.87563133
0000c0 04 5e 9b 3d 7b 2b 86 3e ff d7 d6 be 9d 27 44 3e
       0.075862914 0.26205048 -0.41961667 0.19155736
0000d0 72 c9 1b 3d 40 f0 0b 3e 04 c5 d8 3d 14 99 8d 3d
       0.03803391 0.13665867 0.10584453 0.06913963
0000e0 fa 95 82 3c 06 5f 0b bf 1a f9 87 3d 36 ff a3 be
       0.015940655 -0.5444187 0.06639309 -0.32030648
0000f0 30 6e 49 3d 95 33 30 3e f6 04 bb bc 7a 60 4c bf
       0.04917735 0.17207177 -0.022829514 -0.7983471
000100 fe 72 8f 3d de 76 43 3e ef c6 d6 bd 9e 58 ff 3d
       0.07004355 0.19088313 -0.10487162 0.12468074
000110 ad 23 26 3e 4d a2 0f 3c 49 c5 dc bd b1 2b 33 3e
       0.16224547 0.008766723 -0.10779817 0.17497136
000120 7b d9 8d 3d 1d fe 41 be ea 12 c6 bd 1c 0e 10 bd
       0.06926247 -0.18944593 -0.09671576 -0.035169706
000130 91 ba 81 3e ad 1c d3 bd 0d 36 fb 3c 32 b7 11 3d
       0.2533765 -0.10308204 0.030665422 0.0355751
000140 e4 c8 35 3e 81 49 70 3c 1a 81 51 3c 0a 7b 87 3d
       0.17752415 0.014665962 0.012787128 0.06615265
000150 7b f6 42 bf 21 a1 51 bd f7 a0 02 3e ee 73 4e bf
       -0.7615735 -0.051179055 0.12756716 -0.80645645
000160 70 0d 23 3e 98 8c 6e 3e c9 bd f5 3c 6e 04 2e 3e
       0.15923095 0.2329582 0.029997723 0.16993877
000170 6e 85 ae 3d a3 68 91 3e 6b 2e bf be 83 b7 28 bf
       0.085215434 0.28400144 -0.37340102 -0.65905017
000180 72 b6 05 bc db a9 b8 bd 74 0d 07 3e 18 a6 7c be
       -0.008161174 -0.09016772 0.13188726 -0.24672735
000190 74 f0 de bd e5 19 08 3e a4 d0 7f 3e 6e b0 40 be
       -0.108857065 0.13291128 0.24981934 -0.18817303
0001a0 12 20 c6 bd 3b 39 1b bf d0 c4 94 3e 43 fd f7 3d
       -0.09674086 -0.606342 0.29056406 0.12108853
0001b0 80 72 39 3d c3 17 be 3e ab 2d 53 bd 07 e6 06 bf
       0.04527521 0.37127504 -0.051557224 -0.52694744
0001c0 dd 67 80 3d 4c c5 e8 3d 12 05 1a bf 9d fe 1f bf
       0.0626981 0.113657564 -0.60163987 -0.62497884
0001d0 d5 8d 0a 3c 0a 1a 01 bd 4b 84 3c bf 03 7e 3b 3e
       0.008456667 -0.031518973 -0.73639363 0.18309788
0001e0 90 2a bf 3d ad 24 48 be 97 ee 2e bf 3c 29 12 3e
       0.0933429 -0.1954524 -0.6833281 0.14273542
0001f0 cb f0 14 3e dc 9a da 3d 82 7a c5 3d 15 40 8d 3e
       0.1454498 0.10674068 0.09642507 0.27587953
000200 34 0e 77 3d c3 e3 0c 3d 83 a7 9a be 27 1b 23 3e
       0.06031628 0.034396898 -0.30205926 0.15928327
000210 23 3d 0e 3e 0b 12 0a 3e 50 9d dc be d0 a1 7c 3c
       0.1389051 0.13483445 -0.4308877 0.0154194385
000220 dd 9f e4 be bc a5 ef 3d 0c bb 27 bd 85 fa 91 3d
       -0.44653216 0.11701533 -0.040949866 0.07127861
000230 df e6 07 3e 26 fd ca be 6c ed f5 3d 15 ea 86 3d
       0.13271664 -0.39646262 0.12008175 0.06587616
000240 92 98 41 3e 3c a0 cd 3d 45 8f f5 be 4a db 7a bf
       0.18905857 0.10040328 -0.47960868 -0.9799086
000250 1f e4 eb be 16 1d a4 3e 8f 38 51 bd 82 5c 02 bd
       -0.4607248 0.3205344 -0.05107933 -0.031826504
000260 44 35 2b bd f3 f4 a1 3d dc b6 28 3d a2 29 0d 3e
       -0.041798845 0.079080485 0.041190013 0.13785413
000270 da e3 2f 3e 65 aa 53 bd 8f c1 f2 be f5 c2 65 be
       0.17176762 -0.051676173 -0.47413298 -0.22437651
000280 23 fb 62 3e a5 1c 43 3c d7 ad f1 3c 4a 87 ee 3d
       0.22166114 0.011908685 0.029501839 0.11646898
000290 6b e8 07 3e bd bc 28 3e f8 0c d1 3d c0 8d eb 3d
       0.13272254 0.16478248 0.10207552 0.11501646
0002a0 9b 2b 65 3e 32 4c 4a bd 1a d0 c7 3d 6e 5c 1a bf
       0.22379915 -0.04938907 0.09756489 -0.60297287
0002b0 16 53 2a bf b3 09 44 3d ba bb 36 3e 3e e1 9a bf
       -0.6653303 0.047860812 0.1784505 -1.2099988
0002c0 be 78 84 3c 4b 8d 1c 3e c1 93 c6 be 81 62 0b 3e
       0.016170856 0.15288274 -0.38784602 0.13611795
0002d0 be 95 a8 3d 3b 32 0c 3e e4 f3 61 3d e1 75 ef 3d
       0.08231686 0.13691036 0.055164233 0.116924055
0002e0 90 85 57 3d 2a 41 25 bf 77 73 a4 3d e7 4b 6e be
       0.05261761 -0.6455256 0.08029836 -0.23271142
0002f0 23 7e ac bd 7e 19 ea 3d 72 04 aa be 74 99 91 bf
       -0.08422496 0.114306435 -0.33206517 -1.1374955
000300 1e 43 9f 3d c2 79 94 3e 9a 83 b9 3d 3d 19 a2 3e
       0.077764735 0.28999144 0.09058304 0.3165988
000310 df 3c 45 3d 2f ef 99 3d a7 f9 3e 3d 31 57 1c 3e
       0.048153754 0.07516324 0.046624806 0.15267636
000320 14 f0 b6 3d 6b 81 aa be 64 06 89 bd 47 2f 97 3d
       0.0893251 -0.33301863 -0.06690672 0.07382064
000330 93 60 d2 3d d5 09 92 bd 1a 8c fe 3d e4 38 b6 bd
       0.10272326 -0.071307816 0.12429066 -0.0889757
000340 30 6f 26 3e 7c 81 23 3d f3 7c 42 3d 1d a1 a0 bd
       0.16253352 0.039918408 0.047482442 -0.0784323
000350 c1 51 96 bf ca 4b 03 3b 15 f2 dc 3d 16 9a 94 bf
       -1.1743699 0.0020034187 0.10788361 -1.1609523
000360 dc 15 01 3e 93 97 7c 3e 07 f0 1b bd 0e f8 41 3e
       0.12605995 0.24667196 -0.038070705 0.18942282
000370 ef 85 04 3d 95 0c 76 3e 6a 80 87 be 1c 58 13 bf
       0.03235429 0.24028237 -0.2646516 -0.5755632
000380 59 9e 00 3e e2 ee 33 3d b7 42 05 3e 80 d8 16 be
       0.12560405 0.04392899 0.13013731 -0.14731026
000390 cc 36 23 3e 7b 06 82 3e 94 38 e4 bc 28 ad 5b be
       0.15938872 0.2539557 -0.02785901 -0.21452773
0003a0 17 c6 24 3c 7b 59 00 bf bb a4 f0 3d 3b a1 49 3b
       0.010056994 -0.50136536 0.1175017 0.0030766267
0003b0 c3 da ce 3d be 4e 4b 3e 59 c7 0e 3d d9 fa ba be
       0.10100319 0.19854257 0.03485808 -0.36519507
0003c0 8e b7 8e 3d 5a d2 2c 3e 66 e0 0f bf 63 79 69 bf
       0.06968604 0.16877118 -0.5620178 -0.91200846
0003d0 d4 a1 0e 3e a4 60 90 be 55 c7 84 bf 26 0e 49 3e
       0.1392892 -0.2819873 -1.0373331 0.19634303
0003e0 dc 75 d2 bd 38 d1 a5 3c ea 14 b8 be e0 0a 62 3d
       -0.10276386 0.020241365 -0.35953456 0.055186152
0003f0 cc 4a 43 3d 3d cd 0d 3d 0b 30 98 3d 15 c5 42 3e
       0.047678754 0.03461956 0.074310385 0.19020493

net.2.bias f4 [64]
000000 ad fa 72 bd fa 67 56 3d 27 d3 06 3e 35 b0 0a 3f
       -0.059321094 0.052345254 0.13166486 0.5417512
000010 4f 55 90 bd cc 92 ea bd 08 4f 26 3d fc 6a 84 bd
       -0.07047521 -0.114537805 0.040602714 -0.06465718
000020 d6 c2 07 3e 63 b6 16 bd 97 5b 04 bc 55 ef 1b 40
       0.13257918 -0.03679503 -0.008078477 2.4364827
000030 f1 04 97 bd 95 5e a5 3c 46 dd d9 3d dd 01 9a bd
       -0.073739894 0.020186702 0.10637908 -0.07519887
000040 ce 40 9f bd 2e 47 5a bc 0a 64 69 bd be ff a7 3d
       -0.077760324 -0.013322635 -0.05698017 0.08203076
000050 5e fd 0c 3e 42 73 14 40 02 42 23 bd 58 e5 cf bd
       0.13768527 2.3195348 -0.03985787 -0.10151166
000060 55 24 97 3d 78 0d c3 bb aa 4b ff 3d fa f4 aa 3b
       0.07379977 -0.0059525333 0.12465604 0.0052171918
000070 6c 4e bc 3d f3 9f 87 bd 7f 10 fe 3d fb 82 8e 3d
       0.09194645 -0.06622305 0.1240549 0.06958576
000080 d8 61 a5 bd fc a9 12 bc 6d 80 a6 3d f1 bf 52 3e
       -0.08075303 -0.00895166 0.08129964 0.20581032
000090 69 84 28 3d c9 93 39 bd 43 5c f8 3d 39 56 9a 3d
       0.0411419 -0.045306955 0.121269725 0.07535977
0000a0 45 c1 3d bd 78 7b 1c 3e 7a cc d3 3c 49 50 71 3e
       -0.046326894 0.15281475 0.025854338 0.23565783
0000b0 7d 59 c4 bd 37 a5 02 40 84 d1 51 3d 17 fe fc 3e
       -0.09587381 2.041334 0.0512252 0.49412605
0000c0 3d 42 f4 3d 51 70 58 3d c8 46 67 3e e1 a6 c3 bd
       0.119266964 0.05284149 0.22585595 -0.09553314
0000d0 72 a8 19 bd 1e 14 12 bc ec 92 cd 3d 8e 44 18 3d
       -0.037514158 -0.008915929 0.10037789 0.037174754
0000e0 1d 16 11 40 94 8a 1a 40 1c 43 5c 3d a6 57 cb bb
       2.2669747 2.4147081 0.053774938 -0.006205517
0000f0 e0 1d 1a 3e 70 c2 d5 3d 5e 39 e0 3e c2 be 27 bd
       0.15050459 0.10437477 0.43793768 -0.040953405

net.4.weight f4 [8, 64]
000000 08 b3 89 3c a0 d9 11 be 75 20 4e be 17 08 1a bf
       0.016809002 -0.14243174 -0.20129569 -0.60168594
000010 04 fc 4f bd ac b3 e0 bd 29 5d 18 be 5c 7c 29 3d
       -0.05077745 -0.1097177 -0.14879288 0.041378364
000020 ca ab 15 be 35 90 ef be 99 38 2e bd eb 8a b7 3f
       -0.14616314 -0.4678971 -0.042534444 1.4339269
000030 1e 30 f9 3d 12 71 b6 be cb 2c a4 bd 46 77 84 3d
       0.12167381 -0.3563314 -0.08016356 0.06468062
000040 d6 b5 ce be 2a 93 d4 bd 6a 27 82 bd d3 1d 34 be
       -0.40373105 -0.10379632 -0.06355174 -0.17589502
000050 c0 36 b6 be 43 0a 59 3f 2e b2 a7 3d 9c c6 a7 bd
       -0.35588646 0.84781283 0.08188282 -0.081921786
000060 fd d1 44 be 55 8e 73 bd 1d 66 88 be 09 31 8f bd
       -0.19220729 -0.05946191 -0.26640406 -0.069917746
000070 87 e5 0f be 6c f4 10 3d 3a cf 3c be 7c c1 0a be
       -0.14052401 0.03538935 -0.18438426 -0.13550371
000080 22 6b 80 ba 60 c8 5a bd d3 fc 06 be 5e 83 29 bd
       -0.0009797553 -0.05341375 -0.13182382 -0.041385047
000090 c0 08 a1 3c 29 d8 97 bd 5a 1e 10 bd 6c 61 29 3d
       0.019657493 -0.07414276 -0.035185196 0.041352674
0000a0 69 26 c4 ba 3e 76 44 be ac e4 ce bd bb 47 b8 be
       -0.001496506 -0.19185731 -0.101022094 -0.35992226
0000b0 44 36 f3 3d 89 32 71 3f 92 57 01 be 45 8f f0 bf
       0.11875585 0.94217736 -0.12631062 -1.8793722
0000c0 dc 3b c5 bd 57 55 31 be 6d 25 2c be 8d 65 b3 b8
       -0.09630558 -0.17317711 -0.16811152 -8.5543004e-05
0000d0 f8 15 18 bd 02 cf 28 bd 58 88 6c bd ee c8 bf 3d
       -0.037130326 -0.041213043 -0.057747215 0.09364496
0000e0 d3 0e 68 3f 25 c8 ad 3f 70 ce 10 be e9 8f e5 bd
       0.9064762 1.3576704 -0.1414125 -0.11209089
0000f0 11 0b ab be 44 e9 1c be ff d0 88 bf cf f7 02 be
       -0.3340688 -0.15323359 -1.068878 -0.12789844
000100 8b 9e 50 be 81 21 6d be 8f 53 1f be b4 95 b1 bf
       -0.2037298 -0.23157312 -0.15559219 -1.3873811
000110 c0 de d6 bc 68 32 f6 bd 1a f5 7c be 30 4a aa bd
       -0.026229262 -0.12021333 -0.24702874 -0.083149314
000120 50 80 81 be 76 63 e4 be 26 95 5b be c1 3a 96 3f
       -0.25293207 -0.44607133 -0.21443614 1.173668
000130 b8 e1 94 3d 8b 58 11 be c5 48 89 be 60 44 8f 3d
       0.07269615 -0.14193933 -0.2681333 0.06995463
000140 b2 0d df bd 57 13 83 be 80 27 c7 3b 60 30 d5 bd
       -0.10891284 -0.25600693 0.006077707 -0.104096174
000150 06 3a 1d be 73 20 93 3f ae a9 a4 bd 28 b2 3a 3b
       -0.15354165 1.1494278 -0.08040176 0.0028487537
000160 32 b1 6e be 65 6c 8c bd dd b9 62 bd 56 1f 91 be
       -0.23309782 -0.06856612 -0.055353034 -0.2834422
000170 9a 42 a4 be 38 e4 21 3d 0d f1 93 be 16 2c 9d bd
       -0.32082063 0.039524287 -0.28894845 -0.07674424
000180 26 d5 a8 bd 4d 14 8e bd 4f dd 67 be 57 9f 21 bf
       -0.0824378 -0.06937466 -0.22643016 -0.6313376
000190 3c 84 43 be e0 f1 e1 3d 10 ca 4e be 14 24 94 be
       -0.19093412 0.11032462 -0.20194268 -0.28933775
0001a0 3d 44 59 be 0a b4 26 be be e9 7f be ec 30 15 be
       -0.21217437 -0.16279617 -0.2499151 -0.14569443
0001b0 fa b1 d0 bd 1f a8 75 3f d6 e0 93 be 9a 5f b3 bf
       -0.10190196 0.9595966 -0.28882474 -1.401355
0001c0 ca 38 6b be 7d a7 5d be 83 81 25 be 79 10 05 3e
       -0.22970882 -0.21645923 -0.16162686 0.12994565
0001d0 39 75 37 be a5 28 5a be 87 5d 48 be ec 1a 70 3d
       -0.1791581 -0.21304567 -0.19566928 0.058619425
0001e0 64 bb b1 3f 47 96 83 3f b9 d0 8b bd ac 4b 11 be
       1.3885312 1.0280236 -0.0682692 -0.14189023
0001f0 8f 58 26 be 58 a7 6f be 84 cb 6b bf 17 a0 d7 bd
       -0.1624472 -0.2340368 -0.92107415 -0.105285816
000200 c0 11 c3 be 9c 79 85 be 5b a9 84 bd 68 8e de bf
       -0.3809948 -0.26069343 -0.064776145 -1.7387209
000210 9b 8c 37 bc 7a 6c c3 3d 1b 03 4d be 94 48 29 3d
       -0.011202957 0.09542175 -0.20020716 0.04132898
000220 99 4d 07 be d9 c7 43 bf 5c 33 a7 be d9 c3 a5 3f
       -0.13213195 -0.7647682 -0.32656372 1.2950393
000230 40 fa fb 3b e5 e3 cc bd 9f 98 d1 be 3e 68 fe 3d
       0.0076897442 -0.10004405 -0.40936753 0.12422226
000240 17 38 3f bd 91 6a be be ef fa f7 bc f4 df 8d be
       -0.04668435 -0.3719068 -0.030271022 -0.27709925
000250 9c 0e ec bd f2 8c 9d 3f e4 e2 7d 3d 2f c7 05 3d
       -0.11526224 1.2308638 0.061983958 0.03266066
000260 9c 59 69 be 08 97 8e 3c c3 31 0b be b1 0f 96 be
       -0.2278809 0.017406002 -0.13593201 -0.29308847
000270 b8 99 8a be f3 1e 5f 3d 09 fb a6 be b3 13 97 be
       -0.27070403 0.054472875 -0.326134 -0.29507217
000280 58 25 1a be ee f1 a6 3c 78 fc 31 be 98 3e 00 bf
       -0.15053308 0.020379033 -0.17381465 -0.5009551
000290 b6 9c b0 be 3b 44 c2 3b f1 ff 71 be 5f 75 f3 bd
       -0.3449456 0.005928544 -0.2363279 -0.11887621
0002a0 85 cb 64 be 49 2d 96 be 63 25 0d be 32 af ec bd
       -0.22343262 -0.29331425 -0.13783793 -0.11556853
0002b0 d0 14 61 3d ba b2 72 3f 55 d5 67 be 4f 27 93 bf
       0.05495149 0.94803965 -0.22639973 -1.1496371
0002c0 7a f2 69 bd 83 c5 7b be f6 42 8d bd 3a ab 35 3d
       -0.05711601 -0.24587063 -0.068975374 0.044352747
0002d0 7c 48 b5 be 8b ed 48 be 4e 1d df bd 00 53 99 bd
       -0.35406864 -0.19621865 -0.10894261 -0.07486534
0002e0 f6 ab 95 3f e8 48 93 3f 4f f7 54 be 8e 64 83 be
       1.1693103 1.1506624 -0.20797466 -0.25662655
0002f0 56 2b 5d be e4 3c 77 bd 58 0f ab bf de 87 c3 be
       -0.21598563 -0.060360804 -1.3364058 -0.38189596
000300 6d 0c 0e be 6b 7c 43 be 8f b6 7b bd 79 91 b0 bf
       -0.13871928 -0.1909043 -0.0614534 -1.3794395
000310 08 87 8f bc 20 53 78 bc f7 bf 82 be 60 d2 04 be
       -0.017520443 -0.015156537 -0.25537083 -0.12970877
000320 0e 99 74 be 70 c7 ec be 79 7e 38 be 89 d6 81 3f
       -0.2388651 -0.4624591 -0.18016995 1.0143596
000330 a8 0c 02 3d 5d 3b 13 be 50 78 8a bd ac c2 c0 3d
       0.03175035 -0.14378114 -0.06761229 0.09412131
000340 15 b6 10 be 27 3d 8e be fa d8 af bd 9d 07 76 bd
       -0.14131959 -0.2778103 -0.08586307 -0.060065854
000350 ae 36 59 be 17 95 a5 3f 14 ac bf bd e3 a7 82 bc
       -0.21212265 1.2936124 -0.09358993 -0.015949195
000360 7a c0 ff bd 7b 85 01 3e ff 4a 7b be dd 6d 6f be
       -0.12487884 0.12648575 -0.24540327 -0.23381753
000370 9e 82 4b be 30 0d 0a 3d b5 c2 5e bd c3 86 56 be
       -0.19874045 0.033703983 -0.054384906 -0.20949845
000380 5c 24 7d be 40 bb 12 bb 77 cf 3f be 86 53 09 bf
       -0.24720901 -0.0022389442 -0.18731485 -0.5364307
000390 03 a3 3a be a3 b1 0b bd 7b 70 6c be 3b 68 16 be
       -0.18226247 -0.034104954 -0.23089783 -0.14688198
0003a0 ea bd 80 bd 66 0b 4e bd 72 3a 73 be 05 25 0b be
       -0.06286223 -0.05030384 -0.23752764 -0.1358834
0003b0 e8 b1 5a 3d e3 ef 64 3f 54 c4 84 be a4 16 a0 bf
       0.05339232 0.8942854 -0.25931036 -1.2506909
0003c0 6e c7 60 be a7 34 43 be 4c a2 80 be ad 30 a6 bd
       -0.21951076 -0.19063054 -0.25123823 -0.08114753
0003d0 69 61 20 be eb 98 91 be 3c b1 81 be ea 7a af 3d
       -0.15662159 -0.2843698 -0.25330532 0.08568366
0003e0 bd 6e 9d 3f 1b 69 9f 3f 29 7c 32 be c8 92 90 be
       1.229942 1.2453951 -0.17430176 -0.28236985
0003f0 1f 82 4d be 50 8a e3 bd e2 bc 84 bf 21 e9 d5 bd
       -0.20069169 -0.111103654 -1.0370142 -0.104448564

net.4.bias f4 [8]
000000 5d 26 60 3f b4 42 10 3f c8 13 7a 3f 55 8b 36 3f
       0.8755854 0.5635178 0.97686434 0.71306354
000010 f7 b4 76 3f be d1 ed 3e 26 d8 4e 3f ca 1c df 3e
       0.9636988 0.46449083 0.80798566 0.43576652
